lib/recommend_system/model.npz (npz, 12115 bytes, 4 tensors)

user_factors f4 [9, 50]
000000 c6 78 11 c0 86 32 17 40 3a da 41 3e cc 87 77 3f
       -2.2729964 2.3624587 0.18930903 0.96691585
000010 d5 ee cb 3f e4 a6 e8 3f 10 00 c1 3f e7 eb 55 3f
       1.5932261 1.8175931 1.5078144 0.83563083
000020 94 28 83 3e 14 80 30 40 65 3f 45 3f 90 61 96 bf
       0.25616896 2.7578173 0.7704986 -1.1748524
000030 4d ad ca 3f f2 14 54 40 18 ba 98 3f a5 cc 66 3f
       1.5834137 3.3137784 1.1931791 0.9015601
000040 8a 62 c2 3f 40 7e 81 3e ef ea 86 3f f0 ea 9f 3f
       1.5186322 0.25291634 1.0540446 1.2493572
000050 04 60 19 3f a1 98 14 40 7d 92 41 3f 78 c3 52 3e
       0.59912133 2.3218157 0.7561415 0.20582378
000060 8e 28 7c bf 5e 4e 9f 3f 03 8c c3 3f 41 33 07 40
       -0.9849938 1.2445791 1.5277103 2.1125033
000070 af 60 80 3f bd 28 f4 be e2 cf 27 40 59 11 71 40
       1.0029505 -0.4768733 2.6220632 3.7666838
000080 0c 61 ca be 07 5c 49 40 b0 f1 39 3f 47 d0 21 3f
       -0.39527166 3.146242 0.7263441 0.6320843
000090 aa b1 d1 be bb 66 24 3f f9 fe de 3f a1 a6 a1 3f
       -0.4095586 0.64219254 1.7421561 1.2628976
0000a0 eb d1 9b 3f d3 c7 28 3f 84 93 ed 3e 0a ec b9 3f
       1.2173437 0.6592991 0.46401608 1.4525158
0000b0 40 01 77 3f f8 bb 1d 40 6c 56 ab 3f eb e6 ca 3f
       0.9648628 2.4645977 1.3385749 1.585172
0000c0 5f 91 bf 3f 04 9d d2 3f 8f 7d 07 bf 23 a1 f9 3f
       1.4966239 1.6454167 -0.5292596 1.95023
0000d0 b4 6c 4d 3e a5 7f c1 3f 8a 43 99 3e 26 6a 11 40
       0.20060998 1.5117079 0.2993434 2.2721038
0000e0 3c d1 05 3f a9 aa 98 be 3a 5c 1a 3f 6e 8f 9f 3f
       0.5227239 -0.29817703 0.60296977 1.2465646
0000f0 b9 5d 8e 3d ce 28 05 40 2c b1 6a 40 c7 6b 43 3f
       0.0695147 2.0806155 3.6670637 0.7633633
000100 c5 d2 de 3e 4a 66 2e 40 09 41 55 40 a9 f8 23 40
       0.4352018 2.7249932 3.3320944 2.562052
000110 93 84 a2 3f 72 51 87 3f be 81 a4 3f 65 19 0f 40
       1.2696708 1.057173 1.2852094 2.235925
000120 38 13 04 3f 92 b4 e8 3f c4 d0 f4 3f bf a8 45 3e
       0.51591825 1.8180106 1.912621 0.19302653
000130 bc 75 ac bf 4e 6b e7 3d 30 85 32 3e 76 c0 92 3f
       -1.347343 0.112997636 0.1743362 1.1464984
000140 8e 9b 64 3d c4 bf 5d be 49 93 a9 3f 90 a1 20 40
       0.05581241 -0.21655184 1.3248073 2.509861
000150 52 b8 54 bf da f4 29 bf 39 97 20 bf 45 d0 f3 3f
       -0.8309375 -0.6638924 -0.6273075 1.9047934
000160 e9 ec 21 3f df 1f 4b bf 85 16 1e be 70 a8 9f 3f
       0.6325212 -0.79345506 -0.15438278 1.2473278
000170 59 b6 83 bd 3b 51 82 3f 04 f7 25 3f d1 18 84 3f
       -0.064312644 1.018104 0.6483004 1.0320073
000180 f9 0c 0b bf 11 bf 70 3f 8d e9 cd 3e 81 41 2f 40
       -0.5431667 0.94041544 0.40217248 2.738373
000190 da 82 dd 3f ec b8 15 40 dd 30 b7 3f 59 fd af 3f
       1.7305558 2.3394117 1.4311787 1.374919
0001a0 3d 6d 80 3f cb aa 51 3e 02 8e 5e be 4d 4a d7 3f
       1.0033337 0.20475309 -0.21733859 1.681955
0001b0 7a ff 31 40 c8 2b 04 40 fe 1c 00 40 34 7f 46 40
       2.781218 2.0651722 2.0017695 3.1015139
0001c0 a0 4e 05 c0 35 23 54 bf 7b c0 fd 3f ed 9f de bd
       -2.082924 -0.8286622 1.9824365 -0.10870347
0001d0 20 15 a6 bf a9 37 e3 3f f6 bd 00 3f 28 93 75 3e
       -1.2975197 1.7751361 0.5028986 0.23981917
0001e0 dc cb 12 40 3f 7b be 3f e4 69 99 bd 4b e5 c5 3e
       2.2936926 1.4881362 -0.074909 0.386515
0001f0 a5 53 be 3f b9 1c ef 3f 29 7f 61 3f 15 e6 1d 40
       1.4869276 1.868064 0.88084656 2.467168
000200 64 72 84 3f 94 49 54 3f 03 f5 5e 3f d7 6e 28 40
       1.0347409 0.8292477 0.8709261 2.6317651
000210 42 d2 58 be 21 d9 c5 3f a7 1c 39 40 b2 dd 27 3f
       -0.21173957 1.5456887 2.8923738 0.65572655
000220 d5 5e 2e 3f af ba 89 3f ec cb d3 3f 00 ab 06 40
       0.6811345 1.0760096 1.6546607 2.104187
000230 45 a3 9a 3f 7f 84 96 be 93 06 02 40 bc 39 32 3f
       1.2081076 -0.29397961 2.0316513 0.69619346
000240 d5 64 ca 3e a3 62 fa 3e e0 07 9d 3f a5 53 cd 3d
       0.39530054 0.4890338 1.2268028 0.100257196
000250 3f 6f ac 3f 44 4f 16 bf 58 42 bd 3e 20 c6 2c 3e
       1.347145 -0.587147 0.3696468 0.16872454
000260 c5 4a 86 3f fe 4c 21 3f a5 62 c0 3e 11 a8 94 be
       1.0491568 0.63008106 0.3757526 -0.29034474
000270 e3 1e 19 40 a1 90 95 3e cd e2 62 bf b3 7c 91 3d
       2.3925102 0.29211906 -0.8862732 0.071038626
000280 4c 1c 1e 3f 50 b6 ea 3e 54 fb 30 40 9e 3f f3 3f
       0.6176193 0.45842218 2.7653399 1.900379
000290 61 52 ef 3f 9f e7 a5 be a0 c1 b1 3f 4f b9 cf 3d
       1.8697015 -0.32403275 1.3887215 0.10142767
0002a0 53 a0 10 3f 7d 6a 67 40 cd b5 19 3e cf 9a 48 3f
       0.56494635 3.6158745 0.15010758 0.7836122
0002b0 6b a3 e7 be 86 04 9e 3e 78 d0 06 bf 3c 05 9e 3f
       -0.45241866 0.30862826 -0.5266185 1.2345347
0002c0 b1 28 a6 3f 0f 96 be 3f e4 44 00 40 9d 39 0c 40
       1.2981168 1.4889544 2.0042048 2.1910164
0002d0 ea 86 48 40 8f 74 f1 3e da e9 b5 3f f5 4b c3 bc
       3.1332345 0.4715924 1.4211991 -0.02383993
0002e0 50 18 f0 be a4 1a 8d be 86 d3 2d 40 a3 6c 71 3f
       -0.4689355 -0.27559388 2.7160354 0.9430639
0002f0 25 90 2f 3f 69 95 db 3e 9b d8 c3 3f 78 0a b1 3e
       0.6857932 0.42887428 1.5300478 0.345783
000300 c6 0b 06 40 72 18 13 3f a2 d9 e7 3f 45 34 4c 3f
       2.0944686 0.57459176 1.8113291 0.79767257
000310 a2 05 cf bd 15 9f d4 3d bc 2d bd 3f 33 07 e2 bf
       -0.10108496 0.10381905 1.4779582 -1.7658447
000320 4c 9f 88 be dc dd 4a bf c8 e6 4b 3f 85 77 93 3d
       -0.26684034 -0.7924478 0.7964902 0.07200531
000330 89 56 a0 3f 57 87 20 bf a9 f5 a8 3e 01 5d 1c 3f
       1.2526408 -0.6270651 0.32999924 0.6107941
000340 43 ed 33 3f e3 3f ff 3e ad eb 0d 3c 01 cb a6 be
       0.7028391 0.4985343 0.0086621465 -0.32576755
000350 eb 36 18 3e e9 13 58 3f 11 51 cd 3e 56 81 75 3f
       0.148647 0.8440538 0.4010091 0.95900476
000360 e0 48 85 3f d6 4f 7c bd b3 a5 75 3e 11 0b 52 bf
       1.0412865 -0.061599575 0.2398899 -0.82048136
000370 a1 84 a0 3d e6 5b 09 3f dc 94 18 be 8d 8f d6 be
       0.07837797 0.5365585 -0.14900535 -0.41906396
000380 9d 9f 67 3f 50 b1 25 3f ed 52 91 3d ae d4 ff 3e
       0.90477926 0.6472368 0.07095895 0.4996695
000390 1e f5 29 3f c1 d2 e4 3e 08 e5 64 bd 63 5c 47 bf
       0.66389644 0.44692042 -0.055882484 -0.77875346
0003a0 7d 69 3d 3f 49 e7 08 bf 3f 06 4f 3e 6a 85 34 3f
       0.7398909 -0.53477913 0.20217226 0.70516074
0003b0 ec ee 80 bf f5 58 12 be 9b 03 95 3e 5c ed d8 be
       -1.0072913 -0.14291747 0.29104313 -0.4236859
0003c0 e0 68 3e 3f 65 a2 22 be 89 25 85 3f ea 38 85 3d
       0.74378777 -0.15882261 1.040208 0.06504996
0003d0 aa 0e 11 bc 4b 38 84 3e 9a 23 8a bf 26 71 26 bf
       -0.008853594 0.25824198 -1.0792115 -0.650164
0003e0 fc c5 9b 3d af 38 12 3f df 39 07 3e 5d fe 29 bf
       0.07606122 0.5711774 0.1320567 -0.6640375
0003f0 bf ef 04 3e b1 81 13 3e 79 c5 10 3f 3b bf 89 bd
       0.12982081 0.14404942 0.5655132 -0.067259274

item_factors f4 [36, 50]
000000 f7 71 e6 bc e3 0d 3f 3d 2c 86 08 bc c7 29 d4 3c
       -0.028130515 0.046644103 -0.00833277 0.025898827
000010 47 8b 9d bc ef 32 9f 3b 5e 7f 9c 3b 26 3a 89 bc
       -0.019231452 0.0048583667 0.0047759255 -0.01675136
000020 65 1e 40 3a eb db a6 3c bf 32 cc ba 5c b7 86 3d
       0.0007328748 0.020368537 -0.0015579088 0.06577942
000030 ea 09 26 3d 6d df 1e 3b 4c 36 48 3d b8 d6 b5 ba
       0.0405368 0.002424206 0.048879907 -0.0013873195
000040 d9 21 b9 3b d5 a3 5a 3c 26 15 8f bc 50 19 4c 3d
       0.005649787 0.013344725 -0.017466139 0.049828827
000050 b0 8d 2a 3d f0 2a 61 3d 70 5a 55 bd 4f 51 e8 3a
       0.04163903 0.05497259 -0.0520882 0.0017724427
000060 fe 60 da 3a 69 fb 0f 3d 92 3d 0d bd 7b f6 63 3d
       0.0016660986 0.035151873 -0.034482546 0.055654984
000070 d8 f8 91 3c 4f d5 94 3c 67 19 69 3d 9e 40 02 3d
       0.017818853 0.01816812 0.05690899 0.031799905
000080 06 0e 98 bc 17 c2 97 3d 02 f1 91 bc 43 b2 2e bd
       -0.018561374 0.074100666 -0.017815117 -0.042650472
000090 77 4e be bc 8d fd 12 3d 28 72 14 3c 7d c8 07 bc
       -0.023230774 0.035886336 0.00906042 -0.008287546
0000a0 b8 43 bc 3c fe 86 b7 bc 78 61 10 3d b6 6b fc bb
       0.02298151 -0.022403236 0.035249203 -0.00770327
0000b0 68 6e 91 3b fd 75 c3 bb bb fa 14 bd d2 5d 74 bc
       0.0044382103 -0.005964993 -0.036371928 -0.014914947
0000c0 f7 64 d9 3c 77 bb e3 bc 1b 33 d6 3b d8 8f c4 3c
       0.026537402 -0.027799351 0.006536854 0.023994371
0000d0 00 93 88 3b 47 fe d4 3c fe b6 0a 3d 08 26 a2 3c
       0.0041679144 0.026000155 0.03386592 0.019793525
0000e0 db 9d 54 bc fb 20 45 3d 3f 6c 2a 3d 75 3a e4 3c
       -0.012977089 0.048127156 0.041607138 0.027859906
0000f0 b7 41 68 3b c2 f3 bc 3b 99 0a 8d bc ea e1 68 3c
       0.003543956 0.005766363 -0.017216967 0.014214018
000100 ec 24 c3 bb 62 fc 98 3c fa 09 37 bc 9a 41 8f bc
       -0.005955329 0.018675033 -0.011171812 -0.017487336
000110 4d a1 43 3c 0a c8 17 ba 92 16 bb 3c 2b 5d 2c bc
       0.011940313 -0.0005790001 0.02283791 -0.01052026
000120 0d c2 d8 3c 36 17 35 3c 64 cb b4 ba 6e 69 8a 3c
       0.026459718 0.011052897 -0.0013793525 0.016895976
000130 77 34 c0 3c 46 60 aa 3c cc b7 e9 3c a6 b8 df bc
       0.023462517 0.02079786 0.028530024 -0.027309727
000140 14 24 e3 3c c6 1d 52 3d 07 b8 31 bd 33 fc d4 3c
       0.027727164 0.051297925 -0.043388393 0.025999164
000150 e6 cc d4 3c c4 50 b2 3c d1 76 8a bb 5c 5c d6 bc
       0.02597661 0.021767028 -0.00422559 -0.026167087
000160 72 a1 d7 ba 5b 72 02 3d 59 08 84 3c fd 6f 9f bc
       -0.0016451313 0.03184734 0.016117262 -0.01946258
000170 9e 73 dd bb 3a be 98 3c 79 85 97 bc 5f c5 da 3a
       -0.0067581674 0.018645395 -0.018496262 0.0016690901
000180 65 a7 26 3d 5b 2a 59 3c 56 af b4 3c 0d 85 26 3c
       0.040686984 0.013254727 0.022056263 0.010163558
000190 c8 96 a4 bc 8c 84 b5 ba 0a d8 a1 3b 18 43 30 3c
       -0.02009143 -0.0013848706 0.004939084 0.010758184
0001a0 63 90 9d 3c 63 0b 8f 3b 71 79 a7 3c e4 ea ab 3c
       0.019233888 0.004365371 0.02044365 0.020986028
0001b0 34 62 2a bc e3 1c 70 3a 47 7f ee bb 26 a5 ab bc
       -0.01039939 0.0009159578 -0.0072783562 -0.020952772
0001c0 1d be 37 3d 9a ba 3b 3d 2c dc fe 3a 7e 6e 3c bb
       0.04485904 0.045832254 0.0019444278 -0.0028752382
0001d0 38 6f ac 3c 2b 82 04 bd 52 36 94 3a a6 9e 5b 3d
       0.021049127 -0.0323507 0.0011307693 0.053618096
0001e0 1b 07 1a bc 58 e2 f0 bb 29 82 a8 3a 4b 4f 09 3b
       -0.009401108 -0.007351201 0.0012856174 0.0020951803
0001f0 5c 28 0d bd 2b 3f b3 3c 4a df b9 3c 36 fa 7c 3c
       -0.034462318 0.021880707 0.02268948 0.015440514
000200 ca f9 1f 3d cd 7a 22 bc 1f 63 77 3d 00 b2 ec 3c
       0.039056577 -0.009916973 0.060397264 0.02889347
000210 02 17 a7 bc cc 00 69 3c 8f 10 a5 bc d8 6a 5f 3b
       -0.020396713 0.014221381 -0.020149497 0.0034090783
000220 11 39 b4 3c 48 e2 b9 bc f1 60 e6 bb 2d 0c 08 3c
       0.021999868 -0.022690907 -0.0070305993 0.008303684
000230 3e f9 d5 3c ca aa 77 bc f1 f1 c8 3a 99 cf 91 3c
       0.026119824 -0.015116403 0.0015330893 0.017799186
000240 92 64 52 bb b4 e1 39 3c 3f 52 84 3c bb 90 8e 3b
       -0.0032103402 0.011345316 0.0161525 0.0043507493
000250 21 fc cb 3c 3d 81 e8 bc 18 ec b9 3c ff 67 62 3c
       0.024900498 -0.028381938 0.022695586 0.01381874
000260 6f 5e 85 3c 85 c6 0c 3c 22 5e 8a 3c f3 30 6d 3b
       0.016280381 0.008592253 0.01689059 0.0036192506
000270 77 e8 95 3c fe 96 c9 3c 48 b9 b5 bb ce 45 12 3a
       0.018299324 0.024608131 -0.005545769 0.000557986
000280 84 aa ec 3c 6f 6a 6e bc dc 26 d3 bb 65 fc 68 3c
       0.028889902 -0.014551743 -0.0064438414 0.014220332
000290 4a c0 f2 3c 3d 50 22 bc 74 cf 33 bc 05 28 e4 3a
       0.029632706 -0.009906826 -0.010974754 0.0017406946
0002a0 90 36 03 3c af 27 11 3d 55 c1 13 3c df 1a db 3b
       0.008008614 0.035438236 0.009018262 0.006686553
0002b0 4e aa 85 3c 02 c9 76 3b 0c 37 7d bc 1b 27 b9 3c
       0.01631656 0.003765643 -0.015455019 0.022601655
0002c0 e5 2e 39 3d 02 00 b7 3c ff 7e d0 3c 86 47 92 3c
       0.045210738 0.02233887 0.025451181 0.01785637
0002d0 06 58 fa 3c f5 56 0f 3d ab 0c bb 3c 78 48 01 3c
       0.030559551 0.034995038 0.022833189 0.007890813
0002e0 d7 5e 0b 3d 6b dc ea 3c 5c 94 30 3d 1d 62 db 3b
       0.034025993 0.028669557 0.043110237 0.0066950456
0002f0 b3 ea 62 3c c4 c2 fb 3c d1 79 f9 3c 15 aa 9f 3c
       0.013849902 0.03073252 0.030453594 0.019490281
000300 1a 66 d1 3c fd ec 19 3c 4c d3 9e 3c d9 f8 9e 3c
       0.025561381 0.009394881 0.019387864 0.01940577
000310 a2 b5 0b 3d e0 83 f3 3c 2f 55 e0 3c e8 47 44 bc
       0.034108765 0.029725969 0.027384369 -0.011980034
000320 5d c5 1d bd 4f d3 00 3d 3e 9b bc bc ba 3c 84 bc
       -0.0385183 0.03145152 -0.023023244 -0.016142238
000330 eb f5 df bb f6 d3 ff 3c 31 ea 87 3c a4 c4 09 bd
       -0.0068347356 0.031229 0.016591163 -0.033634797
000340 47 b2 dd bc 0d b8 9a 3c 4d 8d 2e 3c 1b 0a 65 bc
       -0.027062548 0.01888659 0.010653806 -0.01397946
000350 5d aa 4f 3c f6 46 c1 3c 03 7a 5f 3c 1f 38 1c 3c
       0.012674895 0.023593407 0.01363993 0.009534865
000360 d9 04 87 3c 32 bb c8 3c 54 93 be bb 74 38 86 bc
       0.016481804 0.024503324 -0.0058159027 -0.01638434
000370 63 5a d5 3b 28 73 51 3d 04 3f 39 ba ae 2b 3e bc
       0.006511019 0.051135212 -0.000706658 -0.011607094
000380 35 ae 3a bb 5d 26 39 bc 46 e4 15 3b 97 21 fa 3b
       -0.0028485183 -0.01130065 0.0022871657 0.0076333988
000390 0f 51 0e bd 70 51 8e 3a c7 85 71 bc f1 fe 9b 3c
       -0.034745272 0.001085801 -0.014741368 0.019042464
0003a0 41 8b f6 3c 63 69 61 3d 1a 43 40 bb ee 31 1a bb
       0.030095698 0.055032145 -0.002933687 -0.0023528296
0003b0 2b e9 da bc b0 83 45 3d e2 f4 d2 3c 6b 8b e0 bb
       -0.026722511 0.04822129 0.025751535 -0.0068525574
0003c0 41 83 a6 bb 3e 47 3c 3d 11 21 89 bb 4a b7 be ba
       -0.0050815647 0.04596638 -0.00418485 -0.0014550474
0003d0 a8 b4 e2 3c 42 59 e4 3c ab ed 19 bb 74 2f fc 3c
       0.027674034 0.027874593 -0.0023487608 0.030784346
0003e0 06 46 37 bb e1 69 75 3d 84 41 40 bd b5 1c 83 3c
       -0.0027965321 0.059915427 -0.04693748 0.0160049
0003f0 0c 4e 2d bc f2 ce 5a bb 86 48 b4 3a ef 9b 45 3c
       -0.01057769 -0.003338751 0.0013754524 0.012061103

regularization f8 []
000000 7b 14 ae 47 e1 7a 84 3f
       0.01

alpha f8 []
000000 00 00 00 00 00 00 f0 3f
       1.0
